vae/vae_final.pth (torch, 685279 bytes, 12 tensors)

encoder.linear1.weight f4 [100, 784]
0.009470535 0.030462619 0.028314719 -0.0072311675 0.015002822 -0.027547494 -0.019053869 0.0049479306
-0.00113417 0.014027511 -0.028344914 0.02931213 0.008593304 -0.006075115 0.036236897 0.0357724
-0.019449085 0.0045645623 0.030338174 -0.031632528 0.024880392 0.005630174 -0.023234386 0.02955783
0.027721044 -0.0014060822 -0.0019644627 0.026951816 -0.008933728 0.03530174 0.008211779 0.015791038
0.017135033 -0.009410909 -0.0328237 -0.013024031 -0.014445068 -0.021927612 -0.012666616 0.012047974
-0.036169097 -0.0063078506 -0.0051929425 -0.025315898 -0.027311891 -0.030386586 0.012212859 0.020778885
0.016144035 -0.021129847 -0.033465266 0.019600196 0.0106775295 -0.03274723 -0.0052463543 0.011546186
0.011877627 -0.003881033 -0.021508457 -0.016011022 0.03079347 -0.03866233 0.02660459 0.033729956
-0.018860344 -0.023405995 -0.026550548 0.02431118 -0.03358978 -0.016193494 -0.014279575 -0.02139058
-0.021342188 -0.014436185 -0.014426741 0.021371508 -0.026346255 0.03627538 -0.026978059 -0.01837425
0.02487654 0.024208093 0.023482388 -0.02740996 -0.00012255993 0.031410452 -0.023991207 0.0032708875
0.020704035 -0.013377999 0.024924155 -0.015607734 0.0077083865 -0.0045230063 -0.0070580253 -0.03223548
0.0034541613 0.0054338775 -0.016414767 -0.033311814 0.0022437505 -0.028538527 -0.018374363 -0.014617442
0.01850614 0.012696862 0.0025678885 -0.007297394 -0.03179082 -0.024527142 -0.0012703538 -0.024633946
0.0030429917 0.03263388 0.0071791583 0.03198121 0.025956707 0.0011584376 -0.0053519937 -0.024478178
-0.0018295142 0.017737702 0.00090603484 -0.017754981 -0.016924364 0.014641306 0.026558537 0.023637427
0.025313474 -0.007679666 0.019143919 -0.0033919893 -0.013367371 0.00049928756 0.004062561 0.020226631
0.020928157 0.017726138 0.016892951 0.023905482 -0.0023902357 0.03241527 0.00275828 0.012280026
-0.019357417 0.03438988 0.019132813 -0.00084794953 0.0019208941 0.008274404 -0.028449949 -0.02853476
0.021798385 -0.026947677 -0.024305085 -0.043019645 -0.03487008 -0.0089628 -0.01721217 -0.015992066
-0.028863829 0.023233507 -0.013803594 -0.021897158 0.018629497 0.00933571 -0.017672416 0.012878818
-0.0011340338 0.028082525 0.003716663 0.005600567 0.017284686 -0.014364574 -0.011276453 -0.0025047918
-0.027643206 0.027555393 -0.00416616 0.004946145 -0.030834507 -0.024851726 0.019197408 0.020585414
-0.043567028 -0.00039442195 -0.0329039 0.0077516623 0.00025374736 -0.01605995 -0.0143215805 0.035502594
-0.01291703 -0.0072425394 -0.0046971757 -0.03537158 -0.02053065 -0.01877208 0.0022559594 -0.023610538
-0.03126928 0.021488547 -0.012972469 -0.035432138 -0.010998748 0.013306507 -0.0215473 -0.012600036
-0.0023932194 0.01116481 -0.031024827 0.010818967 0.017374521 -0.008839504 -0.020209601 0.016000226
0.018591583 -0.014316886 -0.024828985 0.030048441 -0.009146883 0.007922166 -0.02031769 0.0020071287
-0.005310628 -0.015143728 0.010828268 0.004102476 -0.03272756 0.00655886 -0.00048443026 0.017219089
-0.012188438 -0.042108938 -0.026080545 -0.0025170993 -0.0014843596 0.026016349 -0.033112574 -0.045783993
0.020874728 -0.01663216 -0.022181049 -0.03313349 0.013947519 -0.010689849 0.0027580548 0.026343323
-0.005022219 0.014556338 0.023676967 -0.02260792 -0.0059898347 0.012409096 0.021574896 -0.027410822
00000000: 4e2a 1b3c be8c f93c 45f4 e73c 6ef3 ecbb
00000010: 65ce 753c 48ab e1bc dc16 9cbc 4022 a23b
00000020: 6ea8 94ba a5d3 653c 9833 e8bc fe1f f03c
00000030: eeca 0c3c c211 c7bb 246d 143d 1586 123d
00000040: b053 9fbc 5392 953b c387 f83c 1c91 01bd
00000050: f7d1 cb3c 537d b83b 0a56 bebc 4323 f23c
00000060: 3e17 e33c 4a4c b8ba 37be 00bb 0eca dc3c
00000070: c55e 12bc 8f98 103d b38a 063c 355c 813c
00000080: c55e 8c3c 3730 1abc 2572 06bd bf62 55bc
00000090: 02ab 6cbc 89a1 b3bc a387 4fbc de64 453c
000000a0: 0c26 14bd 16b2 cebb 8f29 aabb 4963 cfbc
000000b0: 30bd dfbc 4aed f8bc 7118 483c 7b38 aa3c
000000c0: 7f40 843c 8018 adbc e012 09bd 9790 a03c
000000d0: cef0 2e3c f621 06bd 9ce9 abbb 372c 3d3c
000000e0: 619a 423c ee58 7ebb 8132 b0bc 8c29 83bc
000000f0: 9642 fc3c 645c 1ebd def1 d93c 6c28 0a3d
00000100: 0281 9abc eebd bfbc 8980 d9bc 3d28 c73c
00000110: 7095 09bd 38a8 84bc e1f4 69bc 4c3b afbc
00000120: d0d5 aebc c085 6cbc 235e 6cbc 4d13 af3c
00000130: 1ad4 d7bc 7e95 143d 1701 ddbc 9885 96bc
00000140: e3c9 cb3c 0d50 c63c 235e c03c da8a e0bc
00000150: 6e83 00b9 3fa8 003d 3589 c4bc 635c 563b
00000160: 829b a93c 652f 5bbc be2d cc3c 95b7 7fbc
00000170: a296 fc3b ba35 94bb 0247 e7bb 5a09 04bd
00000180: 365f 623b ab0e b23b 4378 86bc f871 08bd
00000190: e30b 133b a1c9 e9bc d585 96bc ff7d 6fbc
000001a0: 309a 973c 8006 503c 054a 283b fa1e efbb
000001b0: 1737 02bd 25ed c8bc 0082 a6ba 21cd c9bc
000001c0: ee6c 473b 1aab 053d 253f eb3b bbfe 023d
000001d0: 29a3 d43c b7d6 973a c75f afbb 7686 c8bc
000001e0: 4fcc efba a84e 913c f882 6d3a e572 91bc
000001f0: f7a4 8abc 17e2 6f3c 4a91 d93c 47a3 c13c
00000200: 345e cf3c b5a5 fbbb b5d3 9c3c 234c 5ebb
00000210: d102 5bbc 9fe2 023a 3b1f 853b 52b2 a53c
00000220: 8771 ab3c 6836 913c 1663 8a3c 6ed5 c33c
00000230: 80a5 1cbb e0c5 043d 42c4 343b 2a32 493c
00000240: 7293 9ebc 67dc 0c3d 6bbc 9c3c ee48 5eba
00000250: 83c6 fb3a 5e91 073c de0f e9bc bbc1 e9bc
00000260: 8792 b23c 60c1 dcbc 751b c7bc 5e35 30bd
00000270: eed3 0ebd b5d8 12bc 8900 8dbc cb01 83bc
00000280: d673 ecbc 3254 be3c 7828 62bc ab61 b3bc
00000290: e39c 983c cef4 183c bec5 90bc ae01 533c
000002a0: dca3 94ba 530d e63c 4293 733b f684 b73b
000002b0: 9d98 8d3c 6459 6bbc dfc0 38bc 6f27 24bb
000002c0: 0174 e2bc d9bb e13c 4884 88bb 4613 a23b
000002d0: a698 fcbc d995 cbbc e243 9d3c bea2 a83c
000002e0: 5773 32bd 6bca ceb9 3dc6 06bd a801 fe3b
000002f0: 6509 8539 2890 83bc 10a5 6abc 2b6b 113d
00000300: f3a1 53bc d352 edbb c4ea 99bb cae1 10bd
00000310: e52f a8bc e8c7 99bc b8d8 133b e36a c1bc
00000320: 3714 00bd c008 b03c 7b8a 54bc 4a21 11bd
00000330: 1834 34bc 8903 5a3c f783 b0bc 6270 4ebc
00000340: 8fd7 1cbb 9bec 363c c727 febc 0942 313c
00000350: 0355 8e3c 91d3 10bc 9b8e a5bc e812 833c
00000360: 604d 983c 5f91 6abc 2866 cbbc 2628 f63c
00000370: cfdc 15bc f9cb 013c 4971 a6bc 088a 033b
00000380: c704 aebb 661d 78bc 0c69 313c 106e 863b
00000390: 550d 06bd b5eb d63b 21fb fdb9 0c0f 8d3c
000003a0: 04b2 47bc 6c7a 2cbd dea6 d5bc ebf5 24bb
000003b0: d88e c2ba 3d20 d53c 0da1 07bd ff87 3bbd
000003c0: 7a01 ab3c 2b40 88bc 08b5 b5bc fbb6 07bd
000003d0: 2284 643c 7a24 2fbc 7bc0 343b f4cd d73c
000003e0: 6d91 a4bb b57d 6e3c 33f6 c13c 3f34 b9bc
000003f0: 6046 c4bb 854f 4b3c d6bd b03c a98c e0bc

encoder.linear1.bias f4 [100]
0.028694808 0.011200869 0.009867039 -0.006557894 -0.004449484 0.01228562 -0.004967593 -0.032412514
-0.043685954 -0.002106479 -0.031727925 -0.016536694 -0.009002865 0.07915164 -0.012166803 -0.016474694
0.16258846 -0.019836713 -0.0013093646 0.04951428 0.06960895 0.023869919 0.0040195044 -0.0035045182
-0.030698694 -0.04084065 0.009775253 0.017792013 -0.00010069938 0.022760775 -0.012061845 -0.03455432
-0.010487727 -0.021915494 -0.0008415901 -0.040726706 0.010904602 0.014696185 -0.037134297 0.15013255
-0.03500051 0.07018107 0.007563166 -0.010058379 0.008305664 0.024581946 0.0047059665 -0.014364203
-0.031335834 -0.032201637 -0.002508885 -0.016918337 0.058572788 0.06941039 -0.03617322 -0.042221222
-0.029348794 0.03073885 0.026541047 -0.016970418 -0.009140841 -0.0016654191 -0.039106715 -0.0078058173
-0.028962838 -0.017380703 -0.00015645198 0.010751394 0.012939624 -0.0310116 0.0097377105 -0.040526483
-0.0108465245 0.028855328 -0.016501168 0.006740213 0.028038284 -0.037745707 -0.025101483 0.00043404594
0.09766058 -0.001956021 -0.037822578 0.015158132 0.082267985 0.014354858 0.009676973 -0.037289444
-0.017102867 -0.009812114 -0.006858743 -0.025393276 -0.00075352757 -0.0019233054 -0.046327006 -0.03506376
-0.026779365 0.0029598535 0.02940853 0.01547946
00000000: 6011 eb3c da83 373c 5ca9 213c 9ae3 d6bb
00000010: facc 91bb a049 493c 31c7 a2bb fcc2 04bd
00000020: 0bf0 32bd da0c 0abb 24f5 01bd f677 87bc
00000030: c180 13bc 411a a23d 4557 47bc f0f5 86bc
00000040: 977d 263e 9a80 a2bc fc9e abba 7ccf 4a3d
00000050: 238f 8e3d d98a c33c 0cb6 833b 0fac 65bb
00000060: d47b fbbc 8748 27bd 6228 203c 8ec0 913c
00000070: 912e d3b8 ce74 ba3c 0b9f 45bc d588 0dbd
00000080: b7d4 2bbc 1f88 b3bc 289e 5cba 0cd1 26bd
00000090: 37a9 323c 44c8 703c 221a 18bd 59bc 193e
000000a0: b25c 0fbd 18bb 8f3d 6fd4 f73b e6cb 24bc
000000b0: 7b14 083c 1460 c93c 8234 9a3b d657 6bbc
000000c0: 015a 00bd dde5 03bd 1b6c 24bb 5398 8abc
000000d0: 05ea 6f3d 0927 8e3d 5f2a 14bd 29f0 2cbd
000000e0: e26c f0bc 0ad0 fb3c 9c6c d93c 8c05 8bbc
000000f0: 77c3 15bc 314a daba 5d2e 20bd f1c7 ffbb
00000100: 7943 edbc fa61 8ebc 420d 24b9 9d26 303c
00000110: b700 543c 0a0c febc eb8a 1f3c 19ff 25bd
00000120: 9fb5 31bc 0262 ec3c 752d 87bc 01dd dc3b
00000130: 8bb0 e53c 3e9b 1abd a0a1 cdbc a990 e339
00000140: 4502 c83d 9630 00bb d9eb 1abd d059 783c
00000150: 1e7c a83d a330 6b3c 2b8c 1e3c d1bc 18bd
00000160: 501b 8cbc fdc2 20bc 4ebf e0bb 8f05 d0bc
00000170: 6188 45ba 6c17 fcba 63c1 3dbd 049f 0fbd
00000180: 6660 dbbc 1afa 413b 28ea f03c 909d 7d3c

encoder.linear2.weight f4 [100, 100]
-0.002135188 -0.093820356 0.07595636 0.015654633 0.085242234 0.041256495 0.063272156 -0.0042353487
-0.018437715 0.059558034 0.06251154 0.06671524 -0.017433105 0.07880994 -0.06278208 -0.06447835
-0.068788104 -0.018167552 -0.00038589514 -0.054714274 -0.07674848 0.035061542 -0.026532413 -0.039479155
0.07635317 0.092320226 0.016127078 -0.068864815 -0.04005388 0.017366465 0.030077638 0.011422572
0.060087632 0.0041045174 0.09701296 0.011540288 0.020920034 0.044392087 -0.0034381843 0.05862284
0.07287823 -0.09612932 0.06767207 0.011743988 -0.076828785 -0.07864244 -0.08830263 -0.01114367
0.016925303 0.011416002 0.015489114 0.0058490257 -0.03243485 -0.061269186 0.09880938 0.046450876
0.09351952 0.044826124 0.005725958 -0.040781014 0.088351265 -0.01877336 -0.04254888 0.051564563
0.09388086 -0.04336526 -0.050215293 -0.09789093 -0.0891381 0.027275942 -0.046987202 -0.06733369
-0.022819687 0.061684605 0.056745842 0.065330945 0.07340826 -0.0879833 0.022205088 0.0540152
-0.044939402 0.024378695 -0.032005094 -0.090487756 -0.08836945 -0.052919816 0.056963786 0.038397104
0.05464842 -0.093247384 0.09513815 -0.05061971 0.026104799 -0.01270069 0.029060934 -0.059602305
-0.0408496 0.009348178 0.06693525 -0.029618297 0.00065664755 -0.0074929977 -0.028143251 0.054526746
0.0638619 -0.072953895 -0.038108308 0.049501482 0.058597717 -0.06419281 0.08154223 0.029757503
0.05638324 -0.046102293 -0.074048616 0.055318885 -0.0033082722 0.08809527 -0.05509249 -0.034541726
-0.080056295 -0.052985195 0.08708988 -0.06897625 0.049240272 -0.00012754908 -0.0665275 -0.09277751
0.059182495 0.072390646 0.033964973 -0.05131696 0.05784613 0.09157369 0.054323107 -0.08587606
0.046858367 0.094110645 0.04111232 -0.06322718 0.04455804 0.04618561 -0.0029453516 -0.05771023
-0.017775089 0.01836865 0.009834506 -0.046443284 -0.06531967 -0.006502515 -0.09515986 0.04897657
0.06934076 -0.085930005 -0.019715607 0.042651933 0.039776407 0.042419456 -0.048015304 0.07287157
-0.06250388 -0.010766319 -0.081884034 0.0077006193 0.07663066 0.049587496 -0.051778514 0.02875094
-0.004408464 0.100526966 0.09510133 -0.07249052 -0.06286999 -0.026326012 0.048496757 0.09906212
0.07109815 -0.0013823775 0.0840539 -0.008543785 -0.081025936 -0.011051594 0.009219041 0.08671826
0.0591766 -0.0039431024 0.06811511 0.07157015 0.056954734 -0.077602096 0.078078136 0.06767436
0.08431111 -0.048955545 0.019147117 0.066960804 0.060501687 -0.07882891 0.038505 -0.06137747
0.005395101 0.08164235 -0.034158964 0.090179205 -0.060995046 0.028902244 -0.07371497 -0.040420584
-0.0937878 -0.015225047 -0.08910951 -0.09127427 0.019893233 -0.005852495 0.02831992 -0.092552714
-0.019289518 -0.06583279 0.032355074 -0.061679773 -0.02858356 0.036930315 -0.025770115 -0.09340401
-0.012461831 -0.055893473 -0.05627164 0.002536794 0.032786623 -0.009580844 -0.0029370515 -0.03486634
0.040199623 0.08145926 -0.031525493 -0.06074007 0.049610324 -0.04878529 0.040470578 0.020285461
0.0430104 -0.091199294 -0.09304535 -0.06870813 -0.012132812 -0.03391501 -0.030499171 0.051277116
0.06200134 -0.014842952 0.06806599 0.039435096 -0.055712793 0.03256543 0.04629172 -0.08922438
00000000: 83ee 0bbb e324 c0bd 028f 9b3d 253e 803c
00000010: 7b93 ae3d 92fc 283d d594 813d aec8 8abb
00000020: b10a 97bc 20f3 733d 0d06 803d 00a2 883d
00000030: dfcf 8ebc 1b67 a13d e493 80bd 3a0d 84bd
00000040: c7e0 8cbd 1ed4 94bc f851 cab9 131c 60bd
00000050: 4f2e 9dbd b19c 0f3d 815a d9bc e5b4 21bd
00000060: 0d5f 9c3d 6312 bd3d ef1c 843c ff08 8dbd
00000070: 8a0f 24bd 1e44 8e3c 6165 f63c bd25 3b3c
00000080: 731e 763d 307f 863b bbae c63d 7a13 3d3c
00000090: 7e60 ab3c 7ad4 353d 2953 61bb 811e 703d
000000a0: 2e41 953d 73df c4bd a797 8a3d db69 403c
000000b0: 6958 9dbd 4a0f a1bd 02d8 b4bd f193 36bc
000000c0: efa6 8a3c 2f0a 3b3c 0ec6 7d3c 2fa9 bf3b
000000d0: 68da 04bd 66f5 7abd 925c ca3d 4643 3e3d
000000e0: 2987 bf3d 999b 373d d1a0 bb3b fe09 27bd
000000f0: 82f1 b43d 97ca 99bc bc47 2ebd 5d35 533d
00000100: 9c44 c03d c59f 31bd 8dae 4dbd 0a7b c8bd
00000110: 098e b6bd cc71 df3c a775 40bd 3fe6 89bd
00000120: 5af0 babc ffa8 7c3d 546e 683d 3bcc 853d
00000130: 1257 963d 9730 b4bd 72e7 b53c 0b3f 5d3d
00000140: 6112 38bd d4b5 c73c c617 03bd a551 b9bd
00000150: 0bfb b4bd 73c2 58bd dc52 693d 4846 1d3d
00000160: 06d7 5f3d 7cf8 bebd cad7 c23d 9d56 4fbd
00000170: bbd9 d53c 8e16 50bc 3211 ee3c 8c21 74bd
00000180: e951 27bd 1a29 193c 5915 893d 12a2 f2bc
00000190: df22 2c3a d287 f5bb ad8c e6bc 7057 5f3d
000001a0: 07ca 823d da68 95bd 7517 1cbd 11c2 4a3d
000001b0: 2904 703d 8577 83bd 9dff a63d 02c6 f33c
000001c0: 1df2 663d c2d5 3cbd cda6 97bd 0e96 623d
000001d0: 99cf 58bb 4b6b b43d aaa8 61bd a07b 0dbd
000001e0: 8ef4 a3bd 0107 59bd 2e5c b23d 6c43 8dbd
000001f0: 2bb0 493d b2be 05b9 923f 88bd 2302 bebd
00000200: 5869 723d 8c41 943d db1e 0b3d bc31 52bd
00000210: 10f0 6c3d fd8a bb3d e881 5e3d cadf afbd
00000220: 8fee 3f3d 15bd c03d 6465 283d 407d 81bd
00000230: 7e82 363d 1f2d 3d3d cd06 41bb 9061 6cbd
00000240: 109d 91bc da79 963c e820 213c 503b 3ebd
00000250: 52c6 85bd 0d13 d5bb 2ce3 c2bd a89b 483d
00000260: 8702 8e3d 12fc afbd a082 a1bc cbb3 2e3d
00000270: 96ec 223d 06c0 2d3d b2ab 44bd b13d 953d
00000280: 0902 80bd 3765 30bc d1b2 a7bd 7a55 fc3b
00000290: 89f0 9c3d 421c 4b3d b515 54bd 1787 eb3c
000002a0: e074 90bb 15e1 cd3d 7cc4 c23d e975 94bd
000002b0: fbc1 80bd a6a9 d7bc 89a4 463d 15e1 ca3d
000002c0: e89b 913d e430 b5ba 7324 ac3d 3bfb 0bbc
000002d0: edf0 a5bd bf11 35bc 760b 173c 5899 b13d
000002e0: 2a63 723d 2435 81bb ef7f 8b3d 5f93 923d
000002f0: 5e49 693d d9ed 9ebd 6ee7 9f3d db98 8a3d
00000300: 4eab ac3d 9c85 48bd 6ada 9c3c bf22 893d
00000310: 9ed0 773d 0d71 a1bd 6bb7 1d3d f166 7bbd
00000320: 63c9 b03b 1b34 a73d 45ea 0bbd e0af b83d
00000330: f1d5 79bd 66c4 ec3c e0f7 96bd 0e90 25bd
00000340: d113 c0bd 7a72 79bc 0c7f b6bd 01ee babd
00000350: 22f7 a23c 49c6 bfbb 2dff e73c 478c bdbd
00000360: 0d05 9ebc 58d3 86bd c186 043d eea3 7cbd
00000370: 1228 eabc 3e44 173d d91b d3bc 9a4a bfbd
00000380: b52c 4cbc 8ef0 64bd 177d 66bd 5740 263b
00000390: 444b 063d f9f8 1cbc 8c7b 40bb 02d0 0ebd
000003a0: 5ca8 243d 1dd4 a63d e020 01bd 94ca 78bd
000003b0: 3234 4b3d 16d3 47bd 7ac4 253d b22d a63c
000003c0: ac2b 303d b2c6 babd 8f8e bebd d9b6 8cbd
000003d0: b4c8 46bc 77ea 0abd 66d9 f9bc f407 523d
000003e0: 1ef5 7d3d da2f 73bc 2f66 8b3d b286 213d
000003f0: 1933 64bd 5463 053d 639c 3d3d 46bb b6bd

encoder.linear2.bias f4 [100]
-0.052855 -0.057087276 -0.01938233 -0.017584609 0.09971249 -0.051393345 0.020102205 0.028934611
-0.04724583 -0.045215406 -0.09849519 0.004420918 -0.09821644 -0.09239549 -0.031225538 -0.06543703
-0.0077826544 -0.0014059482 0.03315217 -0.01838803 -0.072578214 -0.06464339 0.053350814 -0.034676746
0.017641384 0.045434944 0.051485304 -0.017909067 0.036637675 0.016379723 0.06450652 0.0720063
0.051106423 -0.032257345 0.030355703 -0.036668412 0.057673726 0.012257789 0.07213167 0.079157956
-0.09249121 0.062333588 -0.0022972233 -0.044575635 -0.039046474 -0.08807585 0.0012654612 0.03544491
0.025744978 -0.05156015 0.07675084 -0.0006505041 -0.047823004 0.064262904 0.08525006 -0.01868362
0.071772024 0.014652204 0.013899063 0.046432707 0.08700559 -0.09511393 0.09175756 -0.06173552
-0.021603655 -0.02215708 -0.03179653 -0.027353542 -0.08519724 0.007234601 0.005848388 -0.098820314
-0.031611264 0.04997046 -0.101224706 0.095047094 0.028738165 0.085454695 -0.026997926 -0.03674914
0.09050368 0.0114281615 0.097205706 0.113449 -0.08908835 0.05444454 0.021254372 -0.027415045
-0.023922311 -0.061307956 0.044591323 -0.055386577 0.064931124 -0.006587151 0.00844861 -0.069076896
0.005749689 -0.03832726 -0.07516219 0.09496982
00000000: 7c7e 58bd 59d4 69bd b1c7 9ebc 990d 90bc
00000010: 1036 cc3d d481 52bd 61ad a43c 4708 ed3c
00000020: d884 41bd ca33 39bd d9b7 c9bd 59dd 903b
00000030: b325 c9bd d939 bdbd b3cc ffbc d903 86bd
00000040: a305 ffbb cb47 b8ba 92ca 073d 7ea2 96bc
00000050: e3a3 94bd c163 84bd 6286 5a3d 3409 0ebd
00000060: aa84 903c fe19 3a3d 41e2 523d 09b6 92bc
00000070: 6311 163d c52e 863c ff1b 843d 0a78 933d
00000080: f854 513d 4720 04bd 86ac f83c 9e31 16bd
00000090: 493b 6c3d e5d4 483c c5b9 933d 911d a23d
000000a0: 086c bdbd 8151 7f3d 038d 16bb f194 36bd
000000b0: 32ef 1fbd 1c61 b4bd d5dd a53a af2e 113d
000000c0: 22e7 d23c bc30 53bd 8b2f 9d3d 9786 2aba
000000d0: 0ee2 43bd 459c 833d 9597 ae3d 640e 99bc
000000e0: 36fd 923d cc0f 703c e5b8 633c 3930 3e3d
000000f0: fd2f b23d 18cb c2bd 63eb bb3d 62de 7cbd
00000100: 26fa b0bc c482 b5bc 143d 02bd 8914 e0bc
00000110: e47b aebd 3b10 ed3b d6a3 bf3b 4e62 cabd
00000120: d07a 01bd d3ad 4c3d e64e cfbd 0da8 c23d
00000130: 4d6c eb3c df02 af3d c12a ddbc 4486 16bd
00000140: fe59 b93d 2f3d 3b3c c913 c73d f357 e83d
00000150: f473 b6bd 3d01 5f3d a61d ae3c 8495 e0bc
00000160: b9f8 c3bc 0d1e 7bbd 64a5 363d 09dd 62bd
00000170: 9cfa 843d 07d9 d7bb 0a6c 0a3c 3078 8dbd
00000180: e367 bc3b 0cfd 1cbd a2ee 99bd 897f c23d

decoder.linear1.weight f4 [100, 8]
-0.083885126 -0.104966715 0.070796765 -0.03407209 -0.057649594 -0.078233175 -0.031583738 0.0678998
0.076746084 -0.0060772155 -0.045463003 0.088228144 -0.03489799 -0.06696181 0.008942873 0.055232268
0.0084645245 0.0144791575 -0.069154166 -0.045122508 -0.061929062 0.0077640237 0.024298655 0.03682003
-0.079240255 0.11990319 0.14480816 0.07465795 0.1410654 -0.07991575 -0.01850974 0.09348833
0.09170153 -0.0067919344 -0.072065264 -0.1130648 0.0743629 0.114113 -0.11022423 0.004357513
-0.059756942 0.020564841 -0.033643156 0.072134115 -0.067222476 -0.045619357 0.047025677 0.020937867
0.073900394 -0.14996585 -0.13518341 -0.07852172 -0.13308984 0.024478832 -0.028720753 -0.111227185
0.036760792 -0.05848409 0.03751119 -0.04456009 -0.0058149975 0.070038944 0.0224247 0.106379695
-0.06684876 -0.11247427 0.098592065 -0.026262974 -0.08921255 -0.11929695 -0.004170917 0.09656152
0.018578686 0.022153776 0.05521497 -0.091077626 0.039859306 -0.007494034 -0.022878889 -0.018740205
0.038418 0.0059630764 -0.05372367 0.024016013 -0.005065484 0.01811395 0.05051091 0.08092758
-0.1168893 0.018206028 0.013016864 0.015412932 0.047005344 0.017561518 0.07987224 0.06198908
0.015645448 0.096256435 -0.120145135 0.1135224 -0.12746188 -0.14284615 -0.051113244 -0.14786467
-0.004797256 -0.041039508 0.11511743 -0.09092106 0.0065273475 -0.025230438 -0.06344376 -0.13289124
-0.0048536556 -0.017117262 0.0013214936 0.1354411 -0.0680536 -0.0039302255 0.056206666 -0.039480127
0.13381922 0.028429754 0.12370728 0.10052528 -0.13158906 -0.06155914 0.11005881 0.14336276
-0.02169683 -0.06660353 0.075871274 -0.06284324 0.085983016 0.087163076 0.048788432 0.10086797
-0.12347093 -0.14858884 -0.16331668 -0.08325265 0.11465658 -0.00018253166 -0.14641577 -0.19759293
0.062156808 -0.18201944 -0.15126747 -0.08911117 -0.16489789 0.03460018 -0.019844357 -0.13350208
-0.08535268 0.08512065 -0.064803384 -0.11383561 0.04587645 0.08266303 -0.11886408 0.04645506
0.010477252 -0.019957345 0.049287852 -0.001811249 -0.00012625396 -0.03879948 0.0656708 -0.018423967
-0.01579875 0.15693201 0.119332634 -0.12104861 -0.046780873 0.1723303 -0.058476824 0.16139108
-0.10369432 0.05539209 0.1355208 -0.011658239 0.017658807 -0.01314557 -0.0020393303 0.058585826
-0.119237095 0.005642244 0.07984657 -0.04377399 0.04875099 0.017411381 0.048702538 -0.05013669
-0.09271998 -0.0069975974 -0.10048161 -0.038472533 0.03494678 -0.0697665 -0.029118093 -0.09186431
-0.066353925 0.07576013 -0.05023774 0.07689114 -0.06808981 -0.06560053 0.04499703 0.100610636
-0.065396056 0.007805433 -0.054482806 0.030154912 -0.04472017 -0.043636627 0.010201074 0.003604127
-0.036548078 0.123971805 0.04793555 -0.1011412 0.05511318 0.051396463 -0.0774761 0.1180021
-0.0550056 0.07228608 0.0256068 0.032392394 0.059685662 0.025606878 0.105139725 -0.0050052917
-0.037026618 -0.008198307 0.070442855 -0.027020052 -0.0049566757 -0.05488846 -0.06555797 -0.11659763
-0.049200207 0.105343685 0.03555548 -0.061321568 -0.015745383 -0.063272335 -0.099668406 -0.13756478
0.1264334 0.10456843 0.103213236 0.06762965 -0.054521516 0.008588315 0.058652006 -0.004574405
00000000: f7cb abbd caf8 d6bd e5fd 903d 2d8f 0bbd
00000010: fb21 6cbd b738 a0bd f35d 01bd 0d0f 8b3d
00000020: 0d2d 9d3d 6123 c7bb 6a37 3abd f5b0 b43d
00000030: 32f1 0ebd 4623 89bd 2185 123c 3b3b 623d
00000040: caae 0a3c fd39 6d3c b3a0 8dbd 61d2 38bd
00000050: 54a9 7dbd 5a69 fe3b f90d c73c 9ad0 163d
00000060: b748 a2bd ce8f f53d 9748 143e 44e6 983d
00000070: 7373 103e deaa a3bd bda1 97bc cf76 bf3d
00000080: 03ce bb3d e08e debb f496 93bd 858e e7bd
00000090: 934b 983d 14b4 e93d 3ebd e1bd 78c9 8e3b
000000a0: b2c3 74bd 9977 a83c 68cd 09bd 0dbb 933d
000000b0: f0ab 89bd 5ddb 3abd ff9d 403d e485 ab3c
000000c0: 1759 973d a690 19be 856d 0abe ffcf a0bd
000000d0: b448 08be d587 c83c c947 ebbc 14cb e3bd
000000e0: 7c92 163d 038d 6fbd 55a5 193d a484 36bd
000000f0: bc8b bebb 9470 8f3d 01b4 b73c 99dd d93d
00000100: 01e8 88bd e958 e6bd a3ea c93d 7325 d7bc
00000110: 12b5 b6bd f651 f4bd 30ac 88bb 0cc2 c53d
00000120: 5432 983c d67b b53c 1829 623d e886 babd
00000130: 8343 233d 8390 f5bb 826c bbbc 0f85 99bc
00000140: 315c 1d3d e965 c33b 5a0d 5cbd 3bbd c43c
00000150: 5cfc a5bb b563 943c 87e4 4e3d 5cbd a53d
00000160: a863 efbd cf24 953c af44 553c 8686 7c3c
00000170: ad88 403d 2cdd 8f3c 0f94 a33d 43e8 7d3d
00000180: e22a 803c 1822 c53d a70e f6bd 6f7e e83d
00000190: 5e85 02be 4346 12be 1f5c 51bd d669 17be
000001a0: 4d32 9dbb 0b19 28bd b0c2 eb3d d234 babd
000001b0: 5ce3 d53b 10b0 cebc cdee 81bd a414 08be
000001c0: 6a0b 9fbb 8039 8cbc f835 ad3a 12b1 0a3e
000001d0: b05f 8bbd 1fc9 80bb f638 663d eab5 21bd
000001e0: e807 093e 84e5 e83c 3e5a fd3d 33e0 cd3d
000001f0: 48bf 06be 7025 7cbd 8366 e13d b0cd 123e
00000200: 8dbd b1bc 6e67 88bd 6662 9b3d f5b3 80bd
00000210: dd17 b03d 8e82 b23d 61d6 473d de93 ce3d
00000220: 54de fcbd ac27 18be 7d3c 27be 5e80 aabd
00000230: 12d1 ea3d f865 3fb9 04ee 15be cd55 4abe
00000240: 2398 7e3d 4e63 3abe dce5 1abe eb7f b6bd
00000250: feda 28be ebb8 0d3d a290 a2bc c5b4 08be
00000260: 63cd aebd bc53 ae3d a3b7 84bd a522 e9bd
00000270: f2e8 3b3d 3c4b a93d 036f f3bd a947 3e3d
00000280: c8a8 2b3c 967d a3bc 0fe2 493d 6e67 edba
00000290: 0a63 04b9 34ec 1ebd 6a7e 863d dced 96bc
000002a0: 616c 81bc c9b2 203e ab64 f43d 55e8 f7bd
000002b0: 4d9d 3fbd 5b77 303e 6585 6fbd b443 253e
000002c0: b05d d4bd d1e2 623d f7c5 0a3e 3302 3fbc
000002d0: 34a9 903c 8460 57bc 49a6 05bb b1f7 6f3d
000002e0: 9432 f4bd 93e2 b83b 9986 a33d 5b4c 33bd
000002f0: 1eaf 473d 50a2 8e3c 507c 473d 215c 4dbd
00000300: f9e3 bdbd 1a4c e5bb 4dc9 cdbd 6095 1dbd
00000310: 5b24 0f3d bde1 8ebd 1189 eebc 5b23 bcbd
00000320: 91e4 87bd 2128 9b3d 17c6 4dbd 1a79 9d3d
00000330: ac72 8bbd 9259 86bd ce4e 383d f30c ce3d
00000340: 5eee 85bd b8c4 ff3b 5d29 5fbd 6f07 f73c
00000350: 7f2c 37bd 52bc 32bd 6822 273c 3833 6c3b
00000360: 70b3 15bd eee4 fd3d 1158 443d 1e23 cfbd
00000370: 5cbe 613d 1985 523d caab 9ebd 16ab f13d
00000380: 8d4d 61bd b90a 943d 5ac5 d13c e3ad 043d
00000390: f478 743d 84c5 d13c 7f53 d73d 6e03 a4bb
000003a0: 39a9 17bd 3152 06bc 5844 903d 2859 ddbc
000003b0: 9c6b a2bb b9d2 60bd 4243 86bd bdca eebd
000003c0: 2886 49bd 6ebe d73d 9fa2 113d 532c 7bbd
000003d0: 76fc 80bc ed94 81bd f31e ccbd c8dd 0cbe
000003e0: c277 013e f927 d63d 7661 d33d 6a81 8a3d
000003f0: f451 5fbd 01b6 0c3c 163d 703d e4e4 95bb

decoder.linear1.bias f4 [100]
0.034114014 -0.22577778 0.34426418 0.09454013 -0.048952848 0.040011946 -0.10475448 -0.16222186
0.13462625 0.2671612 0.2482086 0.48220578 0.10561512 0.5167358 0.47109362 -0.15185767
-0.10604816 0.28662 -0.16134688 0.23598918 0.2196582 0.23144802 0.48322627 -0.3552515
0.07170928 0.31569088 -0.008088977 0.3547454 0.30974331 0.3323892 -0.25798327 0.40900642
0.45834053 0.35042304 0.081876084 0.16612579 0.023300104 0.1731981 -0.16128102 0.0960483
-0.22623782 0.3191321 -0.39317518 -0.13237223 0.14000608 0.5274123 -0.3147251 0.19755766
0.22636107 -0.25887915 0.030840773 -0.4346396 0.22515804 -0.08256357 0.03139697 0.38428187
-0.30720204 -0.1663792 -0.00021533428 -0.052527186 0.05497788 -0.3623984 0.51732916 -0.26720554
-0.17180875 -0.29997942 0.17340766 0.49894345 -0.13871036 0.031021152 0.2312657 0.1092704
0.026740469 0.18113413 0.0248118 -0.12457721 -0.35301352 0.058279477 0.13590163 -0.10911963
0.08297762 -0.12135508 -0.22122724 -0.11628964 0.5012995 -0.19976687 -0.3473912 -0.036982864
0.32254753 -0.1780794 -0.102358855 -0.046190016 -0.17114834 0.5151033 -0.033786442 -0.062791996
0.4408466 -0.086498395 -0.21943067 -0.19718547
00000000: 23bb 0b3d 4a32 67be 6543 b03e 419e c13d
00000010: c882 48bd 91e3 233d 8489 d6bd 7d1d 26be
00000020: 77db 093e 5ac9 883e 652a 7e3e ade3 f63e
00000030: bd4c d83d cc48 043f 2f33 f13e 9480 1bbe
00000040: c72f d9bd dbbf 923e 1e38 25be 26a7 713e
00000050: 14ee 603e b600 6d3e 6f69 f73e 86e3 b5be
00000060: 51dc 923d 3ca2 a13e a187 04bc 30a1 b53e
00000070: ad96 9e3e eb2e aa3e 6216 84be 4a69 d13e
00000080: 9cab ea3e a66a b33e a6ae a73d e11c 2a3e
00000090: dcdf be3c d85a 313e da26 25be f9b4 c43d
000000a0: e3aa 67be 4865 a33e 424e c9be 968c 07be
000000b0: c15d 0f3e 7e04 073f a623 a1be 8e4c 4a3e
000000c0: 32cb 673e cf8b 84be caa5 fc3c 1589 debe
000000d0: d48f 663e 1717 a9bd 1c9a 003d 98c0 c43e
000000e0: 9649 9dbe 4f5f 2abe 5bcb 61b9 bf26 57bd
000000f0: 7c30 613d 488c b9be af6f 043f 2acf 88be
00000100: a2ee 2fbe e796 99be c791 313e 8475 ff3e
00000110: 170a 0ebe 1220 fe3c ead0 6c3e 29c9 df3d
00000120: d40e db3c 3a7b 393e 1e42 cb3c 5622 ffbd
00000130: 30be b4be 76b6 6e3d cc29 0b3e 1d7a dfbd
00000140: 2cf0 a93d 0389 f8bd 6589 62be 4329 eebd
00000150: 2a55 003f b08f 4cbe 42dd b1be 587b 17bd
00000160: f324 a53e 725a 36be 85a1 d1bd be31 3dbd
00000170: 8341 2fbe cfdd 033f a763 0abd 1799 80bd
00000180: a5b6 e13e 1226 b1bd 6fb2 60be fdea 49be

decoder.linear2.weight f4 [784, 100]
-0.019731661 0.00023882643 0.032234266 -0.10434861 0.07126596 0.022428827 -0.024805004 0.030470816
-0.06319834 0.025290675 -0.116612606 -0.010571669 -0.093508005 -0.02156986 -0.08917074 0.0710534
0.017988773 -0.05689657 -0.019710371 -0.029682776 0.049439978 -0.06935775 -0.02254717 -0.08030295
0.03977569 0.056172244 0.018108055 0.062688954 0.007521598 0.053212184 -0.04629137 -0.085870035
-0.08977224 -0.10078514 0.06896791 0.06435618 -0.09143821 -0.10842484 -0.062360015 0.06707427
0.013453397 -0.09741875 -0.08858106 -0.03665975 -0.040691476 -0.04783743 -0.08649169 -0.08687072
0.0900258 -0.0076081054 0.024928423 0.047691345 0.035921168 0.07890738 -0.021358812 -0.020136861
0.051369146 -0.026953688 -0.105204225 -0.10183212 -0.076905176 -0.10495645 0.04629345 -0.025175761
-0.030450223 0.009841628 -0.053149782 -0.040278755 0.058788676 -0.06548396 -0.003650354 0.0460696
-0.09334237 -0.1089638 -0.059159826 0.076868705 -0.08125291 0.04533764 -0.029942231 -0.09565333
0.048019007 -0.0899859 -0.05213544 -0.056082416 0.040027592 -0.083391204 0.034338992 0.04399921
-0.07734956 -0.06952275 0.01849108 -0.0201302 -0.07674914 0.045427382 -0.056541428 -0.033837326
0.046986043 -0.0511161 0.030699147 0.061907884 0.061496444 -0.055275545 -0.031839978 0.051364426
-0.09355406 -0.106439814 -0.017895855 0.050148655 -0.111899175 0.022307927 -0.09242189 -0.021759918
-0.046620343 -0.057644058 0.05017401 -0.11924668 -0.06562895 -0.10691467 0.07365752 0.021718863
-0.023484245 -0.021039471 0.0013135996 0.034567587 0.038244575 0.057912886 -0.05108594 0.05895646
-0.027283302 -0.038533844 -0.052885238 0.05258762 0.031195937 -0.05812829 0.0026260868 0.043324847
0.01763679 -0.065382436 -0.10083267 -0.039470524 -0.053807147 0.059256956 0.051029406 0.02064825
-0.051487707 0.012909799 -0.057250086 -0.021605002 0.037615467 -0.118314154 0.0020032332 -0.077205576
-0.007459307 -0.011950537 0.03125907 -0.040717646 -0.059076928 -0.08372378 -0.01563721 -0.098305784
0.040844228 -0.015889999 0.021389473 -0.037098557 0.05549958 0.0611288 0.023891743 0.052454162
-0.06427406 -0.034951046 -0.09011471 -0.040610038 0.072601974 -0.029300341 0.046034355 0.0397532
-0.107913375 -0.11045534 -0.026585767 0.001381241 -0.10176761 -0.041191015 0.014032069 -0.020010095
0.022885729 -0.067058034 0.009641666 -0.01788954 -0.10574535 0.022101237 0.032421757 0.03399087
0.015134266 -0.1174596 -0.018537395 0.004203557 -0.027608613 0.02799483 -0.09643989 -0.10069917
-0.078494765 -0.02664572 -0.034657814 0.0050501805 -0.033909854 -0.10485309 -0.009762439 0.04108301
0.07317313 0.0010810068 -0.067625806 -0.07982722 -0.06976895 -0.047466077 0.051234987 -0.08653792
-0.0289926 -0.0059165494 0.04968536 -0.08132854 0.008863206 -0.091757774 0.024665084 0.010933295
0.010330104 -0.10330904 -0.030458823 -0.0916759 0.023172835 -0.0061495467 0.013042241 0.023931803
0.05626172 0.04202202 0.061553057 0.0652321 -0.102386825 0.03351748 0.061575774 -0.011490245
-0.04154317 -0.016446704 0.024073195 -0.02713439 -0.06440442 -0.08705782 -0.055976853 0.056752887
-0.08293027 0.02324328 -0.0008182622 0.026532888 -0.041388825 -0.057374697 -0.10748719 0.051906027
00000000: 4ba4 a1bc 7b6d 7a39 1408 043d b9b4 d5bd
00000010: e3f3 913d a9bc b73c dd33 cbbc ef9d f93c
00000020: 226e 81bd 642e cf3c 97d2 eebd cb34 2dbc
00000030: 2081 bfbd 46b3 b0bc 269f b6bd 7284 913d
00000040: 315d 933c 610c 69bd a577 a1bc 4b29 f3bc
00000050: 9381 4a3d 700b 8ebd d8b4 b8bc e075 a4bd
00000060: d5eb 223d de14 663d 5857 943c 1163 803d
00000070: bd77 f63b 05f5 593d 059c 3dbd a1dc afbd
00000080: 82da b7bd 7168 cebd 0c3f 8d3d 2ccd 833d
00000090: f543 bbbd d80d debd 376d 7fbd 3c5e 893d
000000a0: a36b 5c3c 7b83 c7bd fd69 b5bd 8928 16bd
000000b0: 1bac 26bd 2ef1 43bd 8e22 b1bd 47e9 b1bd
000000c0: 725f b83d 6a4d f9bb b136 cc3c 0058 433d
000000d0: 1322 133d 319a a13d adf8 aebc 0ff6 a4bc
000000e0: 7468 523d fbcd dcbc 5075 d7bd 5c8d d0bd
000000f0: 7680 9dbd 68f3 d6bd 339e 3d3d 663d cebc
00000100: bf72 f9bc c83e 213c 96b3 59bd 56fb 24bd
00000110: 65cc 703d 741c 86bd c73a 6fbb 7ab3 3c3d
00000120: 492a bfbd 6a28 dfbd 9351 72bd 576d 9d3d
00000130: ed67 a6bd f6b3 393d 6949 f5bc e5e5 c3bd
00000140: 94af 443d 874a b8bd f98b 55bd adb6 65bd
00000150: f9f3 233d 02c9 aabd 0ba7 0c3d 8438 343d
00000160: 7269 9ebd f261 8ebd 9b7a 973c 17e8 a4bc
00000170: a72e 9dbd 1012 3a3d fc97 67bd 0299 0abd
00000180: 7074 403d 1e5f 51bd c77c fb3c 1f93 7d3d
00000190: b2e3 7b3d 9c68 62bd a36a 02bd 8163 523d
000001a0: 4599 bfbd 1efd d9bd 549a 92bc ad68 4d3d
000001b0: 652b e5bd 1dbf b63c b047 bdbd db41 b2bc
000001c0: f9f4 3ebd 2d1c 6cbd 4383 4d3d 9a37 f4bd
000001d0: 7968 86bd 14f6 dabd c1d9 963d c2eb b13c
000001e0: 0862 c0bc f85a acbc 172d ac3a be96 0d3d
000001f0: 58a6 1c3d 1036 6d3d 7e3f 51bd 547c 713d
00000200: 3b81 dfbc aad5 1dbd 319e 58bd 1e66 573d
00000210: 9f8e ff3c ee17 6ebd 6d1a 2c3b 6575 313d
00000220: 087b 903c 3ae7 85bd 5c81 cebd d8ab 21bd
00000230: e264 5cbd 6cb7 723d 3604 513d 8526 a93c
00000240: c6e4 52bd 9f83 533c 117f 6abd f9fc b0bc
00000250: ad12 1a3d b14e f2bd ad48 033b f51d 9ebd
00000260: 346d f4bb 2fcc 43bc 8309 003d 8cc7 26bd
00000270: a6fa 71bd 6077 abbd 9b19 80bc 8b54 c9bd
00000280: 474c 273d be2b 82bc fa38 af3c a8f4 17bd
00000290: 8753 633d 3162 7a3d 9eb8 c33c 2dda 563d
000002a0: 1ea2 83bd d428 0fbd 108e b8bd b656 26bd
000002b0: 58b0 943d 4507 f0bc 858e 3c3d 40d4 223d
000002c0: b001 ddbd 6936 e2bd 65ca d9bc c20a b53a
000002d0: 896b d0bd e9b7 28bd c3e6 653c 36ec a3bc
000002e0: da7a bb3c b955 89bd 14f8 1d3c 168d 92bc
000002f0: 0591 d8bd a70d b53c adcc 043d 033a 0b3d
00000300: b6f5 773c a98e f0bd bcdb 97bc febd 893b
00000310: 752b e2bc 6a55 e53c 4782 c5bd 5e3b cebd
00000320: ddc1 a0bd 2048 dabc 5af5 0dbd fc7b a53b
00000330: 0fe5 0abd 38bd d6bd a3f2 1fbc a946 283d
00000340: cbdb 953d 92b0 8d3a 667f 8abd 747c a3bd
00000350: 06e3 8ebd ca6b 42bd c7db 513d cb3a b1bd
00000360: e481 edbc 9ddf c1bb e082 4b3d 948f a6bd
00000370: fb36 113c 80eb bbbd 6e0e ca3c 9021 333c
00000380: 993f 293c b193 d3bd c884 f9bc 93c0 bbbd
00000390: f5d4 bd3c 2382 c9bb 20af 553c a10c c43c
000003a0: b072 663d 481f 2c3d 0f1f 7c3d 6898 853d
000003b0: 2fb0 d1bd a049 093d e136 7c3d 9541 3cbc
000003c0: 2c29 2abd 3dbb 86bc 2635 c53c f148 debc
000003d0: 77e6 83bd 5f4b b2bd fc47 65bd b775 683d
000003e0: 58d7 a9bd b168 be3c a680 56ba 805b d93c
000003f0: 5487 29bd bb01 6bbd 3e22 dcbd 6a9b 543d

decoder.linear2.bias f4 [784]
0.07746522 0.028785557 -0.06330753 0.01355527 -0.037175808 0.030877952 -0.007354761 -0.058145553
-0.10047838 0.035671294 0.0431346 -0.04136425 0.019730795 0.054732755 -0.07705804 0.057662476
0.055313397 0.021464787 0.024650184 -0.11156523 -0.0625959 0.031006163 0.07236481 -0.08419678
-0.07843861 0.05737438 -0.081503645 -0.0043894826 -0.009552284 -0.095813334 -0.043731477 0.05387665
0.07000798 -0.04034492 -0.09454282 0.05460177 -0.06155196 -0.08178611 -0.030305024 -0.06537114
-0.042760257 -0.0856478 -0.054191962 -0.025794432 -0.025998387 -0.02809992 -0.093360536 -0.029287774
0.017844886 0.010953523 -0.06199111 -0.036666516 0.025278999 0.011596963 -0.024402399 -0.06375581
0.06153495 0.009264061 -0.12191325 -0.06455065 0.074680015 -0.02232918 0.02623725 -0.033485528
-0.014436575 0.047767624 -0.11521189 0.0029340885 0.04577602 0.06505726 0.06482672 -0.017358527
-0.013775282 -0.0689806 -0.115647174 -0.09381466 0.051032953 0.037356198 0.031105818 0.064745344
0.05752103 0.048197877 0.016781216 -0.025876163 0.05901994 -0.056714453 0.058370236 -0.05234006
-0.05520468 -0.08834893 0.024465507 0.026246065 0.008113615 -0.006657884 -0.08600366 -0.07996495
0.008734268 -0.087515056 -0.051275555 0.031232776 0.021032799 -0.11291689 0.052638948 -0.100818664
-0.01604579 0.07616492 -0.023147613 -0.08438445 -0.018137602 0.01166009 -0.08301167 0.038889877
0.03659646 0.013460161 0.08135657 -0.0025011904 -0.11758199 0.059902124 -0.06446359 -0.07348374
-0.096014924 -0.0066991523 0.060964465 -0.07043187 0.035829578 0.039313246 0.07161375 -0.02588021
0.028803213 -0.0489745 0.07932657 -0.028388716 -0.0354227 0.06640376 0.022949103 -0.121126465
-0.079321794 -0.0042607356 -0.04604631 -0.108727515 0.01544589 0.066479474 0.0481332 0.01732426
0.061113127 -0.10917777 -0.05402453 0.041115656 -0.07757223 0.042791497 -0.042587746 0.100788996
0.028260343 0.102005966 -0.012840577 0.0023487848 -0.007779283 0.062288594 0.05987135 -0.062811784
0.06288606 -0.04050017 0.04603699 -0.08867135 -0.015268623 -0.058623027 -0.042937387 -0.11423079
-0.10700618 -0.10335263 -0.06001385 -0.07786278 -0.1012041 -0.06751331 -0.052457727 0.08317363
-0.004590677 -0.04091384 0.0781834 0.05609372 0.12155494 0.13736159 0.12662564 0.102745324
0.12544282 0.023823898 -0.006260249 0.09572899 -0.029922256 0.054129902 0.120439045 0.051705208
-0.08171859 0.0254591 -0.0113347415 -0.02314799 -0.117463715 -0.08441776 -0.10003746 0.01722064
-0.052141786 0.009028457 0.019362167 -0.038316816 0.093116626 0.020318262 0.109221205 0.005696537
0.009798551 0.020484783 0.099245705 0.15442881 0.10602195 0.08146931 0.099466786 0.08230592
0.028002396 0.08405491 0.053659182 0.05295896 0.038569015 -0.04833127 -0.096964255 0.080888815
0.038674355 -0.1116317 0.013074055 0.058627613 -6.2733234e-05 0.02476944 -0.017461322 0.022778332
0.11773168 0.08632089 0.04181796 -0.025749287 0.09432904 0.13114741 0.042351678 0.0063348454
0.124070756 0.13537559 0.08925963 0.15325588 0.07846185 0.026427824 0.11072069 -0.068365395
-0.043710753 -0.06704663 0.0712786 0.006455435 -0.03136611 -0.08910841 0.0530496 0.015569501
00000000: 16a6 9e3d b0cf eb3c 61a7 81bd ec16 5e3c
00000010: a945 18bd c2f3 fc3c 3500 f1bb 082a 6ebd
00000020: 9cc7 cdbd 101c 123d e8ad 303d 8f6d 29bd
00000030: 7aa2 a13c 742f 603d 9bd0 9dbd 7d2f 6c3d
00000040: 4d90 623d ecd6 af3c 2fef c93c 507c e4bd
00000050: 4732 80bd a300 fe3c 0034 943d 5d6f acbd
00000060: 6ca4 a0bd 6601 6b3d 62eb a6bd a6d5 8fbb
00000070: 2f81 1cbc c839 c4bd c71f 33bd c3ad 5c3d
00000080: 5860 8f3d b740 25bd aa9f c1bd 1ba6 5f3d
00000090: e81d 7cbd 7a7f a7bd 3e42 f8bc 4ee1 85bd
000000a0: 6125 2fbd 1d68 afbd 64f8 5dbd d84e d3bc
000000b0: 92fa d4bc ce31 e6bc cf33 bfbd eaec efbc
000000c0: 702f 923c 6876 333c 64ea 7dbd a12f 16bd
000000d0: e715 cf3c 3001 3e3c 8ae7 c7bc 6892 82bd
000000e0: 120c 7c3d 4ac8 173c a7ad f9bd 2233 84bd
000000f0: d6f1 983d afeb b6bc 80ef d63c 1f28 09bd
00000100: 6287 6cbc fca7 433d 36f4 ebbd d649 403b
00000110: a37f 3b3d be3c 853d dfc3 843d 7833 8ebc
00000120: b8b1 61bc b345 8dbd 6dd8 ecbd e721 c0bd
00000130: ee07 513d d002 193d a1d1 fe3c 3599 843d
00000140: 2c9b 6b3d 236b 453d c378 893c 3ffa d3bc
00000150: e5be 713d 6a4d 68bd a115 6f3d 8862 56bd
00000160: 4d1e 62bd 49f0 b4bd e36b c83c fd01 d73c
00000170: f8ee 043c 612a dabb b022 b0bd aac4 a3bd
00000180: 2d1a 0f3c 183b b3bd 5106 52bd e1db ff3c
00000190: fa4c ac3c f840 e7bd f09b 573d 047a cebd
000001a0: 7672 83bc 5bfc 9b3d 10a0 bdbc c1d1 acbd
000001b0: 4f95 94bc f609 3f3c 0602 aabd fe4a 1f3d
000001c0: 2be6 153d 0288 5c3c 469e a63d 03eb 23bb
000001d0: d4ce f0bd ee5b 753d 7d05 84bd a57e 96bd
000001e0: 79a3 c4bd 9084 dbbb e0b5 793d 963e 90bd
000001f0: 09c2 123d ed06 213d 3baa 923d bc02 d4bc
00000200: b7f4 eb3c 7c99 48bd f875 a23d 748f e8bc
00000210: 6517 11bd b2fe 873d c2ff bb3c 2711 f8bd
00000220: 7773 a2bd a49d 8bbb 0e9b 3cbd 88ac debd
00000230: c210 7d3c 6426 883d 5127 453d 9beb 8d3c
00000240: c251 7a3d 9898 dfbd d348 5dbd e468 283d
00000250: 30de 9ebd 2346 2f3d 7d70 2ebd 766a ce3d
00000260: 3c82 e73c 81e8 d03d 4961 52bc 12ee 193b
00000270: 5be9 febb 5322 7f3d a93b 753d 77a3 80bd
00000280: 68ca 803d 82e3 25bd 4891 3c3d 5399 b5bd
00000290: 3f29 7abc b31e 70bd 1ddf 2fbd d5f1 e9bd
000002a0: 0e26 dbbd 8baa d3bd 15d1 75bd 8576 9fbd
000002b0: 1844 cfbd 6b44 8abd eadd 56bd f056 aa3d
000002c0: 646d 96bb 4595 27bd 9e1e a03d 87c2 653d
000002d0: ccf1 f83d 84a8 0c3e 27aa 013e 246c d23d
000002e0: 1574 003e 562a c33c c622 cdbb 900d c43d
000002f0: 851f f5bc 51b7 5d3d bfa8 f63d d7c8 533d
00000300: 135c a7bd 9a8f d03c 5ab5 39bc dba0 bdbc
00000310: d190 f0bd 38e3 acbd 71e0 ccbd 4d12 8d3c
00000320: a092 55bd 18ec 133c 689d 9e3c 18f2 1cbd
00000330: eeb3 be3d 7c72 a63c 5eaf df3d 04aa ba3b
00000340: 1a8a 203c b4cf a73c 5541 cb3d 9622 1e3e
00000350: 0922 d93d 62d9 a63d 3eb5 cb3d 0290 a83d
00000360: 4865 e53c fb24 ac3d bbc9 5b3d 7feb 583d
00000370: 8bfa 1d3d 03f7 45bd 3295 c6bd 09a9 a53d
00000380: 0069 1e3d 299f e4bd 9034 563c 8223 703d
00000390: a68f 83b8 48e9 ca3c 0c0b 8fbc a099 ba3c
000003a0: 4f1d f13d 02c9 b03d 4f49 2b3d 2bf0 d2bc
000003b0: 952f c13d 824b 063e f478 2d3d 8994 cf3b
000003c0: cf18 fe3d e69f 0a3e c1cd b63d 1cef 1c3e
000003d0: 9bb0 a03d 2a7f d83c 87c1 e23d 2803 8cbd
000003e0: 0c0a 33bd be4f 89bd 84fa 913d 1d88 d33b
000003f0: c079 00bd 787e b6bd 8a4a 593d 3817 7f3c

_enc_mu.weight f4 [8, 100]
-0.033548646 0.034890197 0.09708763 -0.09218956 0.0386318 -0.041597355 -0.05225251 -0.008061733
-0.07590718 0.091884635 0.06298509 -0.09657091 -0.036179587 0.083408386 -0.0051670815 -0.07924346
-0.09375445 -0.040394854 -0.03301207 -0.012311582 -0.08256855 0.039135292 -0.034040034 0.059778906
0.06489526 -0.08347947 -0.09913312 -0.010560911 -0.036034755 0.07412243 0.01142741 -0.035908617
0.015962664 0.10209968 -0.015562452 0.054218486 0.00885213 0.0076444615 0.01844616 -0.027680136
-0.011774831 -0.066266924 -0.022974448 -0.085430734 -0.0632787 0.0049407827 0.04740057 -0.019241182
-0.0315485 -0.06470369 0.06459469 0.07063279 -0.05908965 -0.101943046 0.0014335674 0.049295347
0.051247403 0.016155282 -0.07278028 -0.043630827 -0.015900122 0.059569307 -0.008051687 -0.0064392947
0.038210537 0.049751695 0.077113315 0.044798378 0.0036845005 -0.029239753 0.06703639 0.05374794
-0.08569795 -0.0709997 -0.016308824 0.0005716637 -0.026909022 -0.0075835916 -0.053363282 -0.03495709
-0.1113076 -0.014822103 -0.027530491 0.017261993 0.01698625 0.025119754 -0.083825186 0.0533347
-0.024628915 0.07284691 -0.0033201373 0.07182172 -0.023849204 -0.026827652 0.042584144 0.05791073
-0.012518086 -0.010756295 -0.010469609 -0.08503371 -0.005435723 0.0025044947 0.059052233 0.09063678
0.063886985 0.03401138 0.039565608 -0.088836275 0.045487896 0.057661444 0.081235565 -0.038279098
-0.04135112 0.0031028718 0.022938032 -0.049743645 -0.09165062 0.025719836 -0.05754119 0.031204853
-0.05307504 0.030517459 0.047904104 -0.011815081 -0.03080247 -0.038143102 0.049958497 0.08207657
-0.029740062 -0.021175463 0.0046161744 0.037082706 0.07840257 0.007502784 -0.08409571 -0.022870587
-0.034349263 0.054899763 0.009719396 -0.0052783936 0.002728979 -0.081601396 -0.016728947 0.051079422
0.056266494 -0.011319646 0.01583001 -0.07986951 -0.05608454 -0.055939343 -0.05405541 0.0072981124
-0.026406303 -0.01455172 0.037629746 0.017266415 -0.007747713 -0.015231406 -0.02966307 -0.011526009
-0.05079486 -0.06359605 -0.0011941255 -0.02348252 -0.039195765 -0.03738837 -0.009992433 -0.0005324588
-0.06611901 -0.026571635 0.07695054 0.043340698 -0.024163362 0.067289226 -0.07220371 -0.06679026
0.03437469 0.027467819 -0.08207748 0.007527699 -0.04838759 -0.012918961 0.0028034316 0.07485377
-0.023331296 -0.014909167 0.03507399 -0.059423894 -0.010195296 -0.0496806 0.02777842 0.014923802
0.04515614 0.050224047 0.06626005 0.029394781 0.058107734 0.01091654 0.08178897 -0.055634383
0.0970806 -0.08575267 -0.05794973 -0.05007271 0.043981843 -0.011976162 0.04902473 -0.004901509
-0.040569514 -0.01519176 -0.0010566021 -0.03307547 -0.0362132 0.08639723 -0.013693035 0.02481868
-0.05472549 -0.024169642 0.007980798 0.07496626 0.016448027 0.08873043 -0.055766203 -0.0097730225
0.022563081 0.059440564 -0.06778014 0.03299664 -0.010858295 -0.040146876 -0.019602887 0.011222483
-0.0125235 0.03123482 0.08511832 0.08875151 0.017729754 -0.004644804 0.08028031 0.08636806
-0.05653384 0.012990404 0.07654369 0.019199576 0.06635265 -0.0010079577 -0.0653418 0.014050799
0.040786635 -0.015302552 0.09911489 -0.073491745 0.093260825 -0.061838195 0.058558963 0.024302863
00000000: 4e6a 09bd 06e9 0e3d e1d5 c63d e1cd bcbd
00000010: 613c 1e3d fd61 2abd ba06 56bd 5c15 04bc
00000020: 3975 9bbd 032e bc3d 54fe 803d f8c6 c5bd
00000030: 0c31 14bd 04d2 aa3d 9f50 a9bb 654a a2bd
00000040: 5502 c0bd 1375 25bd aa37 07bd 85b6 49bc
00000050: b319 a9bd 544c 203d 906d 0bbd bada 743d
00000060: cee7 843d 49f7 aabd 4e06 cbbd ac07 2dbc
00000070: 2e99 13bd 80cd 973d 083a 3b3c ea14 13bd
00000080: 22c4 823c a319 d13d a8f9 7ebc 3414 5e3d
00000090: 8608 113c 647e fa3b 671c 973c 74c1 e2bc
000000a0: 39eb 40bc f4b6 87bd e934 bcbc 4ff6 aebd
000000b0: 4398 81bd 4ae6 a13b 1a27 423d af9f 9dbc
000000c0: 0039 01bd 5e83 84bd 394a 843d eda7 903d
000000d0: fd07 72bd 84c7 d0bd 8ae6 bb3a ebe9 493d
000000e0: cce8 513d 1558 843c d40d 95bd 3db6 32bd
000000f0: f940 82bc f2fe 733d 39eb 03bc b800 d3bb
00000100: a782 1c3d 6fc8 4b3d 96ed 9d3d 817e 373d
00000110: a977 713b 3588 efbc 604a 893d cd26 5c3d
00000120: 6882 afbd 4a68 91bd 159a 85bc b4db 153a
00000130: 4f70 dcbc c77f f8bb 7593 5abd 2a2f 0fbd
00000140: 3df5 e3bd 68d8 72bc a087 e1bc 0669 8d3c
00000150: c026 8b3c f1c7 cd3c 8aac abbd 7d75 5a3d
00000160: 94c2 c9bc c330 953d a996 59bb 4417 933d
00000170: 685f c3bc aac5 dbbc b66c 2e3d cd33 6d3d
00000180: a818 4dbc 2c3b 30bc b988 2bbc 2726 aebd
00000190: 261e b2bb 7322 243b c1e0 713d c79f b93d
000001a0: 2ed7 823d 844f 0b3d 8c0f 223d cbef b5bd
000001b0: 8451 3a3d 682e 6c3d d55e a63d 8bca 1cbd
000001c0: cb5f 29bd 8d59 4b3b 8ae8 bb3c febf 4bbd
000001d0: 52b3 bbbd 68b2 d23c 50b0 6bbd 52a1 ff3c
000001e0: 3765 59bd c0ff f93c 1837 443d 0b94 41bc
000001f0: 7655 fcbc f13b 1cbd 48a1 4c3d c317 a83d
00000200: 6ea1 f3bc 2a78 adbc 4743 973b 09e4 173d
00000210: 8791 a03d ead9 f53b 5f3a acbd 195b bbbc
00000220: d0b1 0cbd 93de 603d 1a3e 1f3c 60f6 acbb
00000230: acd8 323b a21e a7bd 250b 89bc a838 513d
00000240: b277 663d 0976 39bc f0ad 813c a092 a3bd
00000250: e7b8 65bd a720 65bd 3569 5dbd 0125 ef3b
00000260: 0852 d8bc 566a 6ebc a621 1a3d 4c72 8d3c
00000270: 87e0 fdbb 268d 79bc f7ff f2bc 96d7 3cbc
00000280: 450e 50bd a53e 82bd 3484 9cba 6a5e c0bc
00000290: bd8b 20bd 8c24 19bd 4db7 23bc b594 0bba
000002a0: 6769 87bd c2ac d9bc 3f98 9d3d 0486 313d
000002b0: 3ef2 c5bc efce 893d 8adf 93bd 55c9 88bd
000002c0: 7acc 0c3d 3104 e13c 3d18 a8bd ebaa f63b
000002d0: 1132 46bd 0daa 53bc c7b9 373b ef4c 993d
000002e0: 4621 bfbc 9445 74bc bea9 0f3d 7866 73bd
000002f0: 2c0a 27bc e37d 4bbd 928f e33c f682 743c
00000300: a5f5 383d bbb7 4d3d 59b3 873d 53cd f03c
00000310: 6002 6e3d 4adb 323c fa80 a73d e1e0 63bd
00000320: 32d2 c63d 199f afbd b25c 6dbd 0b19 4dbd
00000330: 4e26 343d aa37 44bc 28ce 483d d69c a0bb
00000340: 382c 26bd dce6 78bc af7d 8aba 257a 07bd
00000350: 4b54 14bd 08f1 b03d c058 60bc 8b50 cb3c
00000360: d627 60bd 6aff c5bc e5c1 023c e987 993d
00000370: 03be 863c 4db8 b53d 1a6b 64bd 071f 20bc
00000380: 36d6 b83c f377 733d 50d0 8abd 7c27 073d
00000390: fde6 31bc 0d71 24bd 3c96 a0bc 81de 373c
000003a0: 5e2f 4dbc 2ae0 ff3c 8452 ae3d 5ac3 b53d
000003b0: fd3d 913c 7133 98bb 016a a43d bde1 b03d
000003c0: 0790 67bd b4d5 543c f0c2 9c3d 6e48 9d3c
000003d0: e6e3 873d 731d 84ba ecd1 85bd 5335 663c
000003e0: e30f 273d 8eb7 7abc bffc ca3d d782 96bd
000003f0: 88ff be3d 0c4a 7dbd 86db 6f3d cc16 c73c

_enc_mu.bias f4 [8]
0.046771653 0.0026764902 -0.07099441 -0.058803834 -0.004240905 -0.005393053 -0.006675327 -0.018320147
00000000: a293 3f3d 0e68 2f3b 8465 91bd 4adc 70bd
00000010: 4af7 8abb 35b8 b0bb b4bc dabb 2214 96bc
